utils/mnist_utils/MNIST_classifier.pt (torch, 439383 bytes, 6 tensors)

0.weight f4 [128, 784]
0.021303777 0.018980512 -0.0114138005 0.014859691 0.014880264 -0.029638749 -0.01498323 0.034308452
0.033817362 0.03451308 -0.022964314 0.030271182 0.005217551 -0.0252845 0.002341636 -0.031108595
0.00021723482 -0.03349273 0.009934899 -0.007902303 -0.0014959618 0.031284552 -0.0028396577 -0.014401056
0.030137897 0.029903034 0.0066289254 0.026923738 0.020967871 0.021376947 0.01868251 -0.036096588
0.0046438854 0.022684472 0.015842246 -0.016265323 0.008040398 0.0097864205 0.023240559 -0.018620867
0.019336488 0.025873488 -0.018583594 0.0035132756 -0.010474727 0.013064945 -0.021522019 0.028018802
0.017393587 -0.003868898 -0.00038801602 0.016745504 -0.004520822 0.020725425 -0.01769261 -0.0093003735
0.011233785 0.00065425655 0.0038490456 0.009181293 0.019910397 0.030965913 0.029966248 0.019397628
0.0018527313 0.030123882 -0.020382116 0.026071928 -0.021849504 -0.026696699 0.015969435 -0.031013167
-0.0069312723 0.0010887258 0.019509563 0.02466877 -0.03349529 -0.019021582 -0.035407282 -0.025992945
-0.012043935 -0.0025717244 0.033723198 -0.014142866 -0.021218348 0.0067896214 -0.014363821 0.0080552315
-0.007145538 -0.007906066 -0.02191053 0.013258449 -0.012431059 -0.008708403 0.045654215 0.02399457
0.005832115 0.0070363544 0.05121063 -0.014086934 0.007337144 -0.007336406 -0.000360851 0.0002147356
-0.0032530809 -0.009733799 -0.0073947343 0.00025273528 -0.019415006 -0.025895333 0.0131555125 0.0014146998
-0.00094957784 -0.00905177 0.016205214 -0.009894109 -0.009740593 0.00645348 -0.014786226 0.019286845
0.023761485 0.0303317 0.012872397 0.05248823 0.029607771 0.021994995 0.017132517 0.014338042
0.008916605 0.018793445 0.028945714 0.010559122 0.021185515 -0.002043731 -0.025134267 -0.007818883
-0.004764888 0.001322027 0.011714922 0.0086964695 -0.0040607713 -0.03211189 0.025133584 0.0064722244
0.020428885 0.029968686 -0.032552913 -0.033270177 -0.03579002 -0.030918991 0.042496983 0.074603036
0.066437766 0.09781558 0.08355342 0.032102924 0.055964883 0.05850669 0.07573082 0.029758506
0.0228519 -0.024246732 0.03682988 0.022659121 -0.0026651542 -0.011117848 -0.027410213 0.016926661
-0.0294555 -0.00047774598 0.02710366 -0.016684843 -0.010105663 -0.011979364 -0.010986344 -0.0038619104
-0.03256113 0.030755127 0.06384255 0.07931559 0.102972366 0.18114251 0.19664946 0.19671753
0.1878914 0.08942102 0.10113714 0.043295324 -0.021905612 0.021087 0.034706876 0.0011301441
-0.010573306 0.020173121 0.022889175 0.021587836 0.00056109106 0.030066784 -0.035824165 0.0030387896
-0.017064258 -0.032014843 -0.043613218 -0.00754553 -0.008956637 0.05164769 0.040839817 0.07584426
0.09044279 0.10194372 0.17925161 0.15005244 0.1546723 0.021459274 0.071056195 -0.017463697
-0.0047133253 -0.04632618 0.0015985935 -0.008576043 -0.037301768 -0.02451621 0.013917696 -0.00422546
-0.0076582795 -0.011823653 -0.035311542 -0.019839456 0.013125408 -0.0003323106 -0.049473573 0.032142285
0.06035455 0.028652389 0.033405136 -0.013140519 0.0049830847 -0.070714176 0.012160527 -0.019587195
-0.05607678 -0.033444487 0.058049645 0.022636456 0.03395432 -0.06046466 0.032180667 -0.029485663
0.008804958 0.0015234314 -0.021486133 -0.015876131 0.006293399 -0.021252427 -0.012080214 -0.0043450203
00000000: 4285 ae3c 057d 9b3c f300 3bbc 1076 733c
00000010: 5acc 733c f6cc f2bc 397c 75bc 0587 0c3d
00000020: 1384 0a3d 965d 0d3d a81f bcbc 45fb f73c
00000030: fdf7 aa3b 7121 cfbc 2276 193b 74d7 febc
00000040: 87c9 6339 ac2f 09bd fdc5 223c a978 01bc
00000050: 2614 c4ba 3b24 003d 8d19 3abb 68f2 6bbc
00000060: c0e3 f63c 35f7 f43c 7537 d93b 2c8f dc3c
00000070: d0c4 ab3c b51e af3c 100c 993c 04da 13bd
00000080: bc2b 983b c9d4 b93c 99c7 813c db3e 85bc
00000090: e0bb 033c 3957 203c fc62 be3c ca8a 98bc
000000a0: 8e67 9e3c a3f4 d33c 9f3c 98bc fc3e 663b
000000b0: 309e 2bbc 5a0e 563c f24e b0bc b087 e53c
000000c0: ff7c 8e3c 568d 7dbb a16e cbb9 de2d 893c
000000d0: 6723 94bb 5ec8 a93c 18f0 90bc 9860 18bc
000000e0: e90d 383c 6a82 2b3a 4540 7c3b 226d 163c
000000f0: 211b a33c 3aac fd3c c77b f53c c6e7 9e3c
00000100: 59d7 f23a 5cc6 f63c 65f8 a6bc cc94 d53c
00000110: bbfd b2bc 09b3 dabc 55d2 823c 530f febc
00000120: ba1f e3bb 93b3 8e3a 85d2 9f3c 2916 ca3c
00000130: 5b32 09bd 26d3 9bbc 3a07 11bd 28ef d4bc
00000140: ed53 45bc 608a 28bb 5621 0a3d 7bb7 67bc
00000150: 1ad2 adbc 797b de3b 3b56 6bbc 17fa 033c
00000160: 1e25 eabb 7288 01bc b67d b3bc f739 593c
00000170: a4ab 4bbc b1ad 0ebc eaff 3a3d 4390 c43c
00000180: 541b bf3b 3891 e63b 3dc2 513d e2cc 66bc
00000190: 6d6c f03b 3c66 f0bb 9a30 bdb9 a62a 6139
000001a0: a431 55bb 837a 1fbc 874f f2bb 8e81 8439
000001b0: 380c 9fbc 7322 d4bc 388a 573c 736d b93a
000001c0: 17ed 78ba e04d 14bc ccc0 843c e71a 22bc
000001d0: 0297 1fbc b777 d33b ed41 72bc 72ff 9d3c
000001e0: 72a7 c23c 2f7a f83c bfe6 523c e6fd 563d
000001f0: ff8b f23c d92e b43c 7e59 8c3c 1bea 6a3c
00000200: f416 123c b6f4 993c 901f ed3c 2b00 2d3c
00000210: 3f8d ad3c 1ef0 05bb 61e6 cdbc c61a 00bc
00000220: c722 9cbb dd47 ad3a f2ef 3f3c a37b 0e3c
00000230: 3810 85bb c287 03bd f2e4 cd3c f414 d43b
00000240: 7a5a a73c e480 f53c 3456 05bd 4f46 08bd
00000250: 8e98 12bd d349 fdbc 5111 2e3d 7ac9 983d
00000260: 8610 883d 8953 c83d 0e1e ab3d 5b7e 033d
00000270: 6f3b 653d b6a4 6f3d c318 9b3d 1cc8 f33c
00000280: e833 bb3c 15a1 c6bc eeda 163d 9f9f b93c
00000290: dea9 2ebb a227 36bc 628b e0bc c8a9 8a3c
000002a0: a94c f1bc fb79 fab9 7f08 de3c a7ae 88bc
000002b0: 3992 25bc 1845 44bc 1100 34bc 1b18 7dbb
000002c0: d25e 05bd 2df2 fb3c e2bf 823d 3670 a23d
000002d0: 2de3 d23d 6c7d 393e 7a5e 493e 5270 493e
000002e0: 9a66 403e 5e22 b73d fd20 cf3d 7056 313d
000002f0: 6673 b3bc a5be ac3c cc28 0e3d 5821 943a
00000300: a93b 2dbc 1a42 a53c 1482 bb3c f9d8 b03c
00000310: 2f16 133a 9e4e f63c 5cbc 12bd 6e26 473b
00000320: 58ca 8bbc ff21 03bd c6a3 32bd 7e40 f7bb
00000330: dcbe 12bc 878c 533d a747 273d 3c54 9b3d
00000340: 123a b93d dec7 d03d bc8d 373e 59a7 193e
00000350: 6a62 1e3e 5ccb af3c e985 913d 0710 8fbc
00000360: 3d72 9abb 85c0 3dbd e687 d13a 8882 0cbc
00000370: bdc9 18bd 38d6 c8bc 0c07 643c ba75 8abb
00000380: 4ef2 fabb ffb7 41bc d6a2 10bd 5b86 a2bc
00000390: f40b 573c f939 aeb9 cda4 4abd a1a7 033d
000003a0: 5536 773d 6ab8 ea3c d3d3 083d 554b 57bc
000003b0: 2549 a33b 98d2 90bd f23c 473c 5375 a0bc
000003c0: c4b0 65bd 16fd 08bd 77c5 6d3d 1770 b93c
000003d0: af13 0b3d cba9 77bd e0cf 033d eb8b f1bc
000003e0: ac42 103c e0ad c73a b003 b0bc a90e 82bc
000003f0: db38 ce3b 9219 aebc 17ec 45bc ac60 8ebb

0.bias f4 [128]
-0.023501126 0.0036159272 -0.010083361 0.019236736 -0.007607834 -0.0041093524 -0.006036581 -0.0014084929
-0.0016421869 0.017682923 -0.032307237 0.009209743 0.004226658 -0.011430466 -0.005681688 0.012088785
0.033616062 -0.0096032 -0.011042611 -0.0070515866 -0.0041356054 0.023922531 0.020531613 -0.02779003
0.0051244493 -0.030556025 0.022242025 -0.0042544617 0.014584972 0.031758368 -0.014147362 -0.009132216
-0.016459495 -0.032097813 0.0024361222 0.028903237 0.028447762 -0.004087988 0.002366593 0.013800356
-0.010552771 0.016620448 0.029391224 0.027522888 0.03739906 -0.0072900304 0.0036823316 0.024155622
0.025933916 0.0001311846 -0.01147383 -0.025844902 -0.017584609 0.027699174 0.013880194 0.0048557706
0.010427592 -0.0025784445 0.00789978 0.013594796 -0.013241761 -0.023150774 -0.017805906 0.019917851
-0.020628126 -0.019462014 0.03177965 -0.021989321 0.02004557 0.0027736272 -0.016794974 -0.026538935
-0.0013860267 0.009839994 0.014280076 0.025721971 -0.0122297695 -0.022459833 -0.017866839 0.019041723
0.009551229 -0.0057183653 -0.0022075307 0.030907454 -0.01281002 -0.02849691 -0.008944493 0.032332852
-0.0155976815 -0.0016490016 0.025629377 0.016714508 0.0075812554 -0.03214871 0.025379907 -0.012284061
0.00095721305 -0.029298706 0.012811218 -0.016695822 0.022151774 -0.007349692 -0.02844261 0.024699384
-0.036918726 -0.017997593 -0.010007938 -0.015030993 -0.018712396 -0.04463082 0.004300854 -0.009721497
0.0361426 0.039213274 -0.000106643616 0.013067625 0.015364522 -0.026838511 0.005289404 0.020291947
-0.033731867 -0.033378046 -0.03265868 0.02925298 0.021369604 -0.024948692 -0.008569694 -0.014095293
00000000: 6f85 c0bc 31f9 6c3b ae34 25bc 5c96 9d3c
00000010: 234b f9bb bfa7 86bb 83ce c5bb 2e9d b8ba
00000020: a63e d7ba c7db 903c 9854 04bd 76e4 163c
00000030: c77f 8a3b d946 3bbc 742d babb 0a10 463c
00000040: ffb0 093d bd56 1dbc 11ec 34bc ff10 e7bb
00000050: f983 87bb 2ff9 c33c ea31 a83c eba7 e3bc
00000060: ffea a73b a150 fabc e834 b63c 0369 8bbb
00000070: cef5 6e3c 1015 023d 56ca 67bc 4a9f 15bc
00000080: 10d6 86bc ff78 03bd 59a7 1f3b 7bc6 ec3c
00000090: 480b e93c 87f4 85bb d818 1b3b e31a 623c
000000a0: 88e5 2cbc 9b27 883c ddc5 f03c ae77 e13c
000000b0: c22f 193d 35e1 eebb 4653 713b 03e2 c53c
000000c0: 5d73 d43c 998e 0939 bbfc 3bbc b0b8 d3bc
000000d0: 990d 90bc 61e9 e23c c169 633c 281d 9f3b
000000e0: 7ed8 2a3c 1ffb 28bb 146e 013c b5bc 5e3c
000000f0: f9f3 58bc b1a6 bdbc b1dd 91bc c32a a33c
00000100: 51fc a8bc cd6e 9fbc 612b 023d f322 b4bc
00000110: 9b36 a43c bec5 353b 9d95 89bc 2e68 d9bc
00000120: 57ab b5ba ed37 213c fbf6 693c e2b6 d23c
00000130: 5f5f 48bc affd b7bc 7a5d 92bc 63fd 9b3c
00000140: c27c 1c3c 2061 bbbb 38ac 10bb a131 fd3c
00000150: 1ee1 51bc 5a72 e9bc ec8b 12bc 746f 043d
00000160: 6b8d 7fbc 5023 d8ba b3f4 d13c ddec 883c
00000170: 2e6c f83b 5eae 03bd 86e9 cf3c 1643 49bc
00000180: 7bed 7a3a d703 f0bc 25e6 513c adc5 88bc
00000190: a377 b53c afd5 f0bb 7a00 e9bc 5d56 ca3c
000001a0: 1738 17bd b06f 93bc 56f8 23bc 8e44 76bc
000001b0: bd4a 99bc cfce 36bd 2eee 8c3b ea46 1fbc
000001c0: 430a 143d 199e 203d dba5 dfb8 9819 563c
000001d0: 7abb 7b3c 70dc dbbc bd52 ad3b 4c3b a63c
000001e0: 6d2a 0abd 6bb7 08bd 1cc5 05bd f2a3 ef3c
000001f0: 4f0f af3c 3361 ccbc e767 0cbc f2ef 66bc

2.weight f4 [64, 128]
0.16177772 -0.009896659 -0.019964483 -0.09048684 0.020970276 0.09321176 -0.0068057682 -0.0674008
0.1095124 -0.02803646 -0.012362623 0.08246235 0.068519495 0.15025169 0.04362184 0.09301252
-0.033174492 -0.05265341 0.13550648 0.054275285 0.011408244 -0.10304117 0.020142576 0.06388607
0.015659466 0.09182405 0.047568142 0.029431956 0.0018150159 0.11921647 -0.11747946 0.13417809
-0.04046401 -0.035320006 0.038960773 -0.04316734 0.037510313 0.12904346 -0.033705022 -0.04955478
-0.05415289 -0.08417648 0.051463526 0.12180586 0.02701434 -0.0736236 -0.05284952 -0.07157071
-0.036467172 -0.008843341 -0.10250918 -0.0374896 0.057195418 0.053639963 0.002458088 0.032115526
-0.0025291932 0.041198183 -0.047830824 -0.07318349 -0.081176735 0.05987596 -0.04218368 0.057194546
-0.07906422 -0.008190428 0.006493161 -0.049206804 0.07474919 0.10530666 -0.029493295 -0.008454522
0.031922914 0.112601 0.12136896 -0.017487034 0.13635014 -0.2439664 -0.030756243 -0.117543325
-0.04576856 0.10048768 -0.08050706 0.03963545 0.07803586 -0.06096889 -0.05633673 0.026533043
-0.031456675 -0.14571632 0.13939698 0.031812064 0.088831626 0.055093713 0.077404484 -0.11764096
0.14964464 0.098238975 0.086182214 0.060847282 0.09656694 -0.0473687 0.022323823 -0.10753854
0.06074675 0.06515713 0.016723037 0.043137018 0.06791574 -0.0061543114 0.05857483 0.05692493
-0.059539292 -0.028737139 0.054834753 -0.09739398 -0.04666606 -0.09132765 0.024996374 0.09461279
-0.06668517 -0.116681755 -0.08113507 0.012673692 0.022551661 0.024108447 -0.020753084 0.012575072
-0.0062144496 0.03757886 -0.12507425 0.13991593 -0.0017173104 0.029421419 -0.110420436 0.12528853
0.06090371 0.10795484 0.20548147 0.05821719 -0.07808873 0.08706211 0.003605513 0.19680455
0.002838713 0.046238985 -0.05253846 -0.040693767 -0.08435685 0.07344771 0.008392054 0.021394633
0.048798103 0.07588443 0.1476445 -0.009740709 0.02167471 -0.0218881 0.083241716 0.062082123
0.16870612 0.021512972 -0.015902834 0.06572904 0.100359164 0.04012928 -0.0010216235 -0.043613378
-0.10916433 -0.10489312 -0.06624722 0.07604459 -3.3497883e-05 0.05374301 -0.17039701 -0.09842443
0.09298083 0.085105784 -0.004316106 0.16514713 0.011303653 0.0358402 0.079890266 -0.05535733
0.07293622 0.0036580302 -0.007700634 0.07333769 -0.061299093 -0.075296104 0.079953216 0.1324366
0.179634 0.082518786 0.060135186 -0.014630815 -0.015553486 0.17207147 -0.062368087 0.048871603
-0.03761997 0.0207696 0.104228295 -0.036474172 -0.07694384 0.17530422 0.028926436 0.006890447
-0.032282673 -0.03315304 0.009002574 -0.08296917 0.12951802 0.04253674 0.07891522 -0.074724905
-0.021837959 -0.042178378 -0.13672681 0.12511063 -0.04026341 -0.014342966 -0.038709003 0.044709675
0.09233729 0.07500302 0.058452833 -0.019250987 -0.08149265 -0.060956266 0.1705174 0.057260938
-0.06205061 0.15235543 0.10705774 0.15110037 0.04973396 0.06976214 0.019548615 -0.07737629
0.04124377 0.014516113 0.04239132 -0.10404799 0.06386782 0.055606946 -0.07744002 0.10909023
0.027870335 0.05278821 -0.054218687 0.09473664 0.05988317 0.15745854 -0.037776124 0.21815516
00000000: 0fa9 253e 9925 22bc 8e8c a3bc 2a51 b9bd
00000010: dbc9 ab3c cfe5 be3d ec02 dfbb 6e09 8abd
00000020: 0a48 e03d b8ac e5bc 998c 4abc 05e2 a83d
00000030: f353 8c3d 94db 193e d1ac 323d 597d be3d
00000040: fae1 07bd 1aab 57bd 36c2 0a3e c34f 5e3d
00000050: a5e9 3a3c 4007 d3bd 0b02 a53c b3d6 823d
00000060: 4848 803c 3f0e bc3d d0d6 423d 491b f13c
00000070: d4e5 ed3a c427 f43d 1299 f0bd fb65 093e
00000080: 97bd 25bd b6ab 10bd 5595 1f3d 3dd0 30bd
00000090: 6aa4 193d f823 043e 470e 0abd f4f9 4abd
000000a0: 6ccf 5dbd b864 acbd 6bcb 523d 5a75 f93d
000000b0: 2d4d dd3c f8c7 96bd bd78 58bd aa93 92bd
000000c0: 9a5e 15bd a9e3 10bc 55f0 d1bd b28e 19bd
000000d0: be45 6a3d 94b5 5b3d e017 213b 928b 033d
000000e0: d2c0 25bb 6dbf 283d 41ea 43bd 3ae1 95bd
000000f0: fd3f a6bd 7f40 753d cbc8 2cbd d444 6a3d
00000100: 6cec a1bd 2531 06bc 95c4 d43b 138d 49bd
00000110: 1a16 993d 05ab d73d ec9b f1bc d684 0abc
00000120: 9ac1 023d 5a9b e63d 4a90 f83d f840 8fbc
00000130: 5f9f 0b3e 54d2 79be 84f4 fbbc 8eba f0bd
00000140: d077 3bbd 7ccc cd3d e3e0 a4bd c858 223d
00000150: 44d1 9f3d 84ba 79bd 58c1 66bd d35b d93c
00000160: b7d8 00bd a936 15be 15be 0e3e 5e4d 023d
00000170: 5bed b53d f2a9 613d 3e86 9e3d beed f0bd
00000180: 723c 193e 8431 c93d 4d80 b03d 003b 793d
00000190: e3c4 c53d af05 42bd 73e0 b63c 2b3d dcbd
000001a0: 96d1 783d 1a71 853d c0fe 883c 71b0 303d
000001b0: 6817 8b3d 1baa c9bb 29ec 6f3d 1e2a 693d
000001c0: 79df 73bd 266a ebbc 689a 603d 7f76 c7bd
000001d0: e924 3fbd fe09 bbbd 32c5 cc3c 5ac4 c13d
000001e0: 3c92 88bd d8f6 eebd 252a a6bd 51a5 4f3c
000001f0: 43be b83c 147f c53c 5f02 aabc ad07 4e3c
00000200: 95a2 cbbb 4aec 193d 7713 00be 1f46 0f3e
00000210: 6017 e1ba 3005 f13c 1c24 e2bd a34b 003e
00000220: 2b76 793d 6d17 dd3d bc69 523e 2675 6e3d
00000230: fcec 9fbd 9f4d b23d 784a 6c3b 2287 493e
00000240: b309 3a3b 1765 3d3d 9132 57bd 82ae 26bd
00000250: 49c3 acbd c16b 963d d37e 093c cc43 af3c
00000260: 85e0 473d 4c69 9b3d 1f30 173e 7f97 1fbc
00000270: 298f b13c ac4e b3bc a27a aa3d d349 7e3d
00000280: 4cc1 2c3e f93b b03c a946 82bc f29c 863d
00000290: 1b89 cd3d 9a5e 243d ffe7 85ba f1a3 32bd
000002a0: 8c91 dfbd 34d2 d6bd 9fac 87bd 44bd 9b3d
000002b0: 1480 0cb8 a121 5c3d 8e7c 2ebe bf92 c9bd
000002c0: bc6c be3d f14b ae3d 1f6e 8dbb 541c 293e
000002d0: f532 393c 2ccd 123d 829d a33d 5ebe 62bd
000002e0: 965f 953d 90bb 6f3b 9a55 fcbb 1232 963d
000002f0: c214 7bbd d834 9abd 83be a33d 769d 073e
00000300: faf1 373e 9cff a83d 5050 763d 16b6 6fbc
00000310: 0cd4 7ebc 8133 303e ae75 7fbd 972d 483d
00000320: 6617 1abd 0225 aa3c a575 d53d f165 15bd
00000330: bb94 9dbd f382 333e 22f7 ec3c 42c9 e13b
00000340: d63a 04bd 7bcb 07bd 887f 133c bdeb a9bd
00000350: 5fa0 043e 013b 2e3d 4e9e a13d 5f09 99bd
00000360: 85e5 b2bc 3cc3 2cbd 1d02 0cbe 001d 003e
00000370: 3feb 24bd c2fe 6abc 558d 1ebd 7e21 373d
00000380: 551b bd3d 2f9b 993d 3d6c 6f3d 3fb4 9dbc
00000390: 9ee5 a6bd 47ad 79bd 1d9c 2e3e 728a 6a3d
000003a0: c828 7ebd 1003 1c3e 1741 db3d 0eba 1a3e
000003b0: d6b5 4b3d 74df 8e3d 6b24 a03c 7677 9ebd
000003c0: 3aef 283d fed4 6d3c 85a2 2d3d 1d17 d5bd
000003d0: 22cd 823d 1cc4 633d e098 9ebd b36a df3d
000003e0: 5450 e43c 7338 583d 6a14 5ebd 4905 c23d
000003f0: 0e48 753d d03c 213e 23bb 1abd 1164 5f3e

2.bias f4 [64]
0.07571895 0.101799145 0.06778017 0.0062570344 0.13264796 0.041358415 0.05586703 -0.021972578
-0.08888277 0.048706207 -0.020363906 0.012248447 -0.08019735 0.09568412 0.003726994 -0.08267893
0.021939121 0.018149354 0.06978731 0.05895555 0.008944107 0.09658616 0.07238479 0.040340878
-0.015499969 0.06091221 0.017144479 0.00014955016 0.088100545 -0.055418402 0.034501724 -0.08404517
0.017361613 -0.043726724 -0.022180872 -0.018725256 -0.023528304 -0.0051120534 -0.024495715 -0.01129312
0.021038903 -0.06811647 0.08727605 0.03503267 -0.020770432 0.03897602 0.046741474 -0.009189161
0.026407406 0.0352323 0.08430123 0.0032740734 -0.06802853 0.0052536773 -0.08914857 0.02594892
0.010858839 -0.0061316267 0.06914364 0.057149626 -0.08796249 -0.018813366 0.0062574893 0.10106867
00000000: 8912 9b3d 127c d03d 54d0 8a3d cf07 cd3b
00000010: ded4 073e 7167 293d d4d4 643d d6ff b3bc
00000020: 2b08 b6bd 2980 473d 35d2 a6bc b6ad 483c
00000030: 823e a4bd 09f6 c33d 9540 743b 9253 a9bd
00000040: acb9 b33c f4ad 943c a6ec 8e3d 607b 713d
00000050: 4e8a 123c f7ce c53d 7a3e 943d 7a3c 253d
00000060: 95f3 7dbc 157f 793d 9472 8c3c 91d0 1c39
00000070: 0f6e b43d 68fe 62bd ae51 0d3d e01f acbd
00000080: f139 8e3c cb1a 33bd a9b4 b5bc b565 99bc
00000090: 6ebe c0bc 0383 a7bb 3dab c8bc c706 39bc
000000a0: c759 ac3c a680 8bbd c9bd b23d 6b7e 0f3d
000000b0: c126 aabc 52a5 1f3d fd73 3f3d 228e 16bc
000000c0: 5854 d83c bf4f 103d 20a6 ac3d d691 563b
000000d0: 8b52 8bbd 0a27 ac3b 8793 b6bd d492 d43c
000000e0: 46e9 313c d0eb c8bb 2e9b 8d3d ba15 6a3d
000000f0: ae25 b4bd 7d1e 9abc a00b cd3b 17fd ce3d

4.weight f4 [10, 64]
0.13609974 -0.3014373 0.41032103 0.08608837 -0.5279355 -0.06169302 -0.31957674 -0.09858722
0.09197322 0.0111391265 0.04535893 0.2975678 -0.10760701 -0.09891271 0.13709258 0.09621032
-0.01812823 -0.02804755 0.36981353 -0.0018927135 0.26296827 -0.14256528 0.13450399 -0.3359412
0.08531736 -0.21447177 -0.38639987 -0.5207941 0.18541676 -0.36290026 0.035326973 0.07694675
-0.0324029 -0.029644703 0.23492931 0.17669517 -0.15387411 0.30537882 -0.19660148 -0.19966626
-0.3528245 0.10090875 0.2984207 -0.16906199 -0.010077125 -0.011219744 0.36212394 -0.17589818
-0.13038875 0.09053962 0.05778741 -0.14889112 0.03438028 0.09347322 0.21538317 -0.2585974
-0.0082551455 -0.11936964 0.4359842 -0.005751191 0.10422996 0.03675431 0.34369588 0.29721734
-0.035979893 0.57876134 -0.26591024 -0.063936874 0.15924561 -0.012101541 0.036589712 0.108586304
0.011551503 0.06477999 0.38931084 -0.09620776 0.33655447 0.0043782936 -0.03454034 -0.1157201
0.016030693 -0.6010988 -0.11114971 -0.32968023 -0.10743258 -0.02153731 0.2259074 0.35990348
0.0040579555 0.21073927 0.022983467 0.40859294 0.060802057 -0.38908583 -0.100169435 0.04144773
-0.0074649383 0.07358753 0.13059069 -0.078072354 -0.038855582 0.12557252 0.009915567 0.66024405
0.41247204 0.0061301338 0.032576285 0.1263565 -0.01286159 0.21082413 -0.28819436 -0.23833033
-0.17560354 0.2443973 -0.24477816 0.0633169 0.090538785 -0.19736896 0.013894259 -0.3004278
0.22271101 -0.0066647646 -0.04765601 -0.28558296 0.06396464 0.27842954 0.084971726 -0.44769686
-0.24571039 -0.010201787 0.27555746 0.05985312 0.009068 0.01218139 -0.21506424 -0.0645642
-0.12879409 0.18156165 -0.14262995 0.4539428 -0.12173667 0.11646909 0.13184673 -0.041693397
0.13547017 -0.2180589 -0.41422215 0.16335684 0.20808694 -0.19764283 0.38531208 0.29303205
-0.16825274 -0.02545014 -0.08539321 -0.33692253 -0.31369722 -0.2380829 0.028535979 0.011615924
-0.11906901 -0.11181227 0.037625264 -0.2883808 0.33073425 -0.34969476 0.0787059 -0.30915272
0.6423594 0.08445817 0.28667083 0.03782077 0.13876021 -0.17109184 0.23521937 -0.24900624
0.081172116 0.042983185 0.26979014 -0.09638217 0.11532681 -0.12665313 -0.235733 0.013861664
-0.24802218 0.3061697 -0.012218325 -0.27747005 0.14356074 0.4758071 -0.17992246 0.52368784
0.17133424 0.1214997 -0.17315234 -0.3834629 0.2396687 0.0046803886 0.06472534 -0.017015394
0.066305764 -0.17941323 0.16482507 -0.317032 -0.18519457 0.22142322 0.315484 0.11413889
-0.025189964 0.25992006 -0.052802164 -0.1427344 0.27098674 -0.3952589 0.3863899 -0.21887384
0.43618196 -0.71264863 0.056379795 0.38777414 -0.05153188 0.14937957 0.36008027 0.025955463
0.09765134 0.015953163 -0.47078976 -0.3522058 0.31248546 0.09862986 -0.13726957 -0.4396995
0.054987572 -0.07103423 0.30718926 -0.1884099 -0.1967222 0.35992202 0.20014681 0.08830329
-0.16345598 -0.118892655 -0.0985707 0.19724537 0.3650109 0.07790902 -0.36705637 0.2645258
0.031362213 -0.049119838 -0.48334062 0.14229658 -0.25148377 0.05603896 -0.08314127 -0.3685013
00000000: bb5d 0b3e fd55 9abe 9915 d23e 194f b03d
00000010: c826 07bf d2b1 7cbd 909f a3be 19e8 c9bd
00000020: 755c bc3d e280 363c 49ca 393d cf5a 983e
00000030: 1061 dcbd bf92 cabd ff61 0c3e eb09 c53d
00000040: a781 94bc fac3 e5bc 3358 bd3e ed14 f8ba
00000050: c7a3 863e a2fc 11be 6abb 093e 7c00 acbe
00000060: deba ae3d 7d9e 5bbe 34d6 c5be c352 05bf
00000070: e4dd 3d3e 10ce b9be 04b3 103d 4296 9d3d
00000080: e7b8 04bd 73d9 f2bc 4f91 703e 94ef 343e
00000090: 2d91 1dbe 9d5a 9c3e e651 49be 5075 4cbe
000000a0: 6aa5 b4be 3fa9 ce3d 99ca 983e 961e 2dbe
000000b0: 871a 25bc 04d3 37bc 4f68 b93e a71e 34be
000000c0: a184 05be d66c b93d 7eb2 6c3d ea76 18be
000000d0: 56d2 0c3d e36e bf3d 688d 5c3e e166 84be
000000e0: 9740 07bc 1278 f4bd 5239 df3e 7d74 bcbb
000000f0: 8476 d53d b08b 163d e8f8 af3e df2c 983e
00000100: a75f 13bd b429 143f 6325 88be 56f1 82bd
00000110: 4811 233e 8b45 46bc 18df 153d 7f62 de3d
00000120: 8442 3d3c 5fab 843d c053 c73e 9308 c5bd
00000130: de50 ac3e ca77 8f3b 2c7a 0dbd a9fe ecbd
00000140: cd52 833c 9ce1 19bf 76a2 e3bd d9cb a8be
00000150: 9d05 dcbd 036f b0bc 4554 673e 4545 b83e
00000160: 99f8 843b 09cc 573e d347 bc3c 1833 d13e
00000170: 940b 793d 4236 c7be a225 cdbd 18c5 293d
00000180: 719c f4bb 0fb5 963d 91b9 053e 66e4 9fbd
00000190: 0827 1fbd 1596 003e e774 223c c105 293f
000001a0: 892f d33e 4adf c83b b66e 053d 9963 013e
000001b0: 6bb9 52bc 48e2 573e 368e 93be de0c 74be
000001c0: 6ad1 33be 4943 7a3e 20a7 7abe 4aac 813d
000001d0: 666c b93d 171b 4abe bfa4 633c acd1 99be
000001e0: 5b0e 643e 1964 dabb f332 43bd ee37 92be
000001f0: e5ff 823d 518e 8e3e a805 ae3d 8638 e5be
00000200: 819b 7bbe 6525 27bc de15 8d3e 8c28 753d
00000210: f391 143c 7494 473c cd39 5cbe 3c3a 84bd
00000220: 99e2 03be 4ceb 393e 960d 12be 316b e83e
00000230: 1351 f9bd 5987 ee3d d402 073e b2c6 2abd
00000240: b1b8 0a3e d54a 5fbe ed14 d4be 0447 273e
00000250: be14 553e e262 4abe a047 c53e 4c08 963e
00000260: 724a 2cbe d07c d0bc a3e2 aebd 1c81 acbe
00000270: ec9c a0be 01cc 73be 49c4 e93c b750 3e3c
00000280: 74da f3bd d5fd e4bd f31c 1a3d a6a6 93be
00000290: 0056 a93e 310b b3be 8f30 a13d 4449 9ebe
000002a0: aa71 243f 68f8 ac3d 85c6 923e f4e9 1a3d
000002b0: 2817 0e3e b332 2fbe 59dd 703e 7efb 7ebe
000002c0: 913d a63d 230f 303d ef21 8a3e 0464 c5bd
000002d0: 7630 ec3d 5cb1 01be fe63 71be 081c 633c
000002e0: 87f9 7dbe 46c2 9c3e 5f2f 48bc 8e10 8ebe
000002f0: 9601 133e fd9c f33e 983d 38be 6810 063f
00000300: 3e72 2f3e d6d4 f83d d94e 31be 4055 c4be
00000310: b66b 753e f25d 993b b88e 843d de63 8bbc
00000320: 51cb 873d 1ab8 37be e7c7 283e 0552 a2be
00000330: a5a3 3dbe c5bc 623e 1e87 a13e a6c1 e93d
00000340: 2f5b cebc 3e14 853e 1547 58bd f728 12be
00000350: c6be 8a3e 605f cabe e6d4 c53e 7720 60be
00000360: 3e53 df3e 2470 36bf 80ee 663d 558a c63e
00000370: 1813 53bd f5f6 183e 715c b83e 8da0 d43c
00000380: 6dfd c73d 35b0 823c 5b0b f1be 5254 b4be
00000390: 18fe 9f3e 74fe c93d 6590 0cbe 4b20 e1be
000003a0: a63a 613d 657a 91bd e947 9d3e 86ee 40be
000003b0: 8b71 49be b347 b83e 49f3 4c3e 5bd8 b43d
000003c0: 0161 27be fe7d f3bd 6fdf c9bd b1fa 493e
000003d0: b5e2 ba3e c48e 9f3d d0ee bbbe ed6f 873e
000003e0: aa75 003d e231 49bd 6c78 f7be 32b6 113e
000003f0: 7bc2 80be 1c89 653d f845 aabd 34ac bcbe

4.bias f4 [10]
-0.14283957 -0.12418565 0.047005698 0.13914867 0.06404007 -0.07618715 0.009088335 0.08302393
-0.013302558 0.046660922
00000000: 8944 12be 0c55 febd 0c89 403d fd7c 0e3e
00000010: 7127 833d 0208 9cbd 3de7 143c 7308 aa3d
00000020: f9f2 59bc 861f 3f3d
